model_cnn.pth (torch, 434831 bytes, 8 tensors)

conv1.weight f4 [6, 3, 5, 5]
00000000: cc4a 8c3d 21a8 033e 5813 0abc 0ecd b13c
00000010: 4afa 7b3d 9aae fabd edfc 37bd 7078 42bd
00000020: d56d a3bc 977a 6a3d 1879 14be db02 28be
00000030: aa46 70be 34ef 71be 7e8a 0abe 19c7 48be
00000040: 2e9c 61be cdfe 61be 6bb0 5abd 01cd 74bd
00000050: 5f47 e53c 695d 3bbe 59d3 9ebd de4a 00be
00000060: 226d f3bb 40c5 b63d 9b08 893d 9147 693e
00000070: 7355 1d3e dda8 003e 28db cc3b bb90 5f3d
00000080: 3f0e 0a3c 01f7 953d aed5 363e b30d fd3d
00000090: d47a debc 58bb 82bd 05ca 17bd a25f 443b
000000a0: 468a 973d c274 61bd 1a9a fa3c 0027 41bd
000000b0: b635 be3d 25f4 3f3c 6fc6 d63d 0096 0a3e
000000c0: 539e 0c3e cc5d 173d 6191 6a3d 2bb1 24bd
000000d0: bb99 133e 4fab 05bc 6373 17be 76a4 0e3d
000000e0: 5fd4 a53d fa6e e83d 6685 253e 402f 933c
000000f0: eb83 143d d666 833d ff42 933d 652f 9bbc
00000100: 0197 0ebe c686 36bc ddd7 903d 2ff1 88bc
00000110: ef92 4f3d 44cb 1cbe 2799 1b3c b85e 683d
00000120: b120 3abd 496e 6dbd baed df3c 64cb 723c
00000130: 4fa2 fdbc 497e 9b3c 01a8 6cbb 4cfd a1bd
00000140: 3a74 2a3e 2d05 343d c7d4 813e c7be ce3d
00000150: f5da 983d 1cb2 4c3e 4762 123e 3e8b 5a3e
00000160: a915 7c3e 6997 4c3e 737d 2e3e 1b9f cf3d
00000170: c285 f13c 0636 4c3e 48d8 953d 0b72 3f3d
00000180: d75f 5fbd ac7d 3f3d 487b 3bbd 93f4 babd
00000190: 5ab6 8c3c 8b3c 3abd 908d 3dbd c648 623b
000001a0: 7f43 95bc b78c a3bd f31f 393d 9e15 b2bd
000001b0: e738 8fbd faec c1bc 6c37 88bd 27ee 1fbc
000001c0: 5cb8 3ebd 5324 08bd e00e 58bc cd84 0bbe
000001d0: 2192 1ebe a4c3 55bd bbf5 a6bd cd6d e7bd
000001e0: da22 0fbe 4807 10bd f51e 85bd cfe5 0dbd
000001f0: 892e 29bd a45d 7cbd 3d12 a63d 4b16 213d
00000200: 5ae6 8e3c ae50 003e a724 b0bd 45e8 1ebd
00000210: b678 d7bd 7856 313c 416f 62bd d586 17be
00000220: 45d4 25be ca7c 50be 1d35 84be 8beb 41be
00000230: 64c6 ffbd 0c1b f8bc c271 84bd b27f 21be
00000240: 5734 153d 006e bf3d 4eb8 8ebc 9d23 0fbc
00000250: d94d cd3d 6008 733e c3cc a93c e1df a6bd
00000260: c708 8dbd 86d1 4cbc d030 e8bd 3dc6 c1bd
00000270: e51b 17be a4d6 d4bd 0ce0 64bd 4426 afbd
00000280: 7ee1 f0bd e3d9 883b 7cb0 d1ba b2d1 23bd
00000290: a905 7fbd 3897 243e 7b40 403e 4c6e e83d
000002a0: ee9d 79bb 7f41 ec3d e46e 02bd 06f8 7e3d
000002b0: 0b43 26bd 0f31 803d 1c65 b03d 741a dc3c
000002c0: a387 153d cf43 27bd 0451 3e3b 57a7 873d
000002d0: c2ac 23bd d26b cdbc c871 a33d bd2b 8d3c
000002e0: bbc4 b53d 4f21 603d 75b0 1e3d d94f 3a3b
000002f0: 990d 333d 7809 923b 8c69 1ebc bf03 ed3d
00000300: 0d19 393e 804d 6f3e 1983 223e 9deb b33d
00000310: 96a7 df3d 72af 0b3e 1007 353e dcca e63c
00000320: 9338 8a3b 82a4 e9bc 91a3 303d 3f5a 88bd
00000330: dd4f aebd db47 b2bd e9cd 683c 741a ecbc
00000340: 903b aabc 8597 f03d 0e78 bebd 00b0 9b3c
00000350: e900 ba3a 377d aa3d a9bd 263c c171 743c
00000360: 3445 55bd 189c 9b3d 6b6e 49bd 4828 43bd
00000370: b3e2 94bd a4ac ffbd 47aa 243c 2ec7 4abc
00000380: 3d29 5dbd a72e 013d 2e7d 043d 161a 3dbd
00000390: 3018 22be 43d0 023e 02ac 343d c74a 1fbb
000003a0: 9243 02be d500 27be f3ba 593e 0817 403d
000003b0: 382b 4bbd b326 5cbe b1da 273d 072f 653e
000003c0: 883b 463d 705e da3d 8d5f 6fbe 63a3 3c3d
000003d0: dbbe 103e 8129 83bd 4af5 aabb 455a d63c
000003e0: 6fa5 b6bc 8180 233d dbd6 d03d 8b1a f13d
000003f0: 5245 14be 78be a5bd b343 043e edf2 533e
0.06850204 0.12857105 -0.0084274635 0.021704223 0.06151799 -0.12240334 -0.044918943 -0.04747814
-0.019949833 0.057245817 -0.14499319 -0.1640734 -0.23464456 -0.23626405 -0.13529393 -0.196072
-0.22032234 -0.22069855 -0.0533909 -0.05976582 0.027988134 -0.18297352 -0.07755155 -0.1252856
-0.007428781 0.08924341 0.066910945 0.22781207 0.15364628 0.12564416 0.0062517114 0.054581385
0.008426248 0.07322503 0.1785495 0.123561285 -0.027158178 -0.06383389 -0.037057895 0.0029964228
0.073994204 -0.05504299 0.03059106 -0.047156334 0.09287588 0.011715923 0.10487067 0.13533783
0.13732271 0.036954686 0.05726755 -0.040208023 0.14414112 -0.008158519 -0.1479011 0.03482481
0.08097147 0.11349292 0.16164169 0.017966866 0.03625862 0.06416099 0.07190513 -0.018943498
-0.13924791 -0.011140531 0.07072423 -0.016716568 0.050677236 -0.15311915 0.009496964 0.056730956
-0.045441333 -0.057966504 0.027335037 0.014819 -0.030961184 0.018981116 -0.003611088 -0.07909641
0.166459 0.04395025 0.2535765 0.10094982 0.07463638 0.19989818 0.14295302 0.21342179
0.24617638 0.19979633 0.17040043 0.10137769 0.029482726 0.19942483 0.07316643 0.04673962
-0.05453476 0.04675071 -0.045771867 -0.0912868 0.017176796 -0.045467895 -0.046277583 0.003452824
-0.018220661 -0.079858236 0.045196485 -0.086955294 -0.06993275 -0.02367257 -0.06651196 -0.00976137
-0.046562538 -0.033237766 -0.01318714 -0.13624878 -0.15485431 -0.05218853 -0.08152338 -0.1130024
-0.13978139 -0.035163194 -0.06500045 -0.03464299 -0.041304145 -0.06161274 0.081089474 0.0393279
0.017443825 0.12530777 -0.08600741 -0.03879573 -0.10521071 0.010823838 -0.05528188 -0.14797528
-0.16194256 -0.20360103 -0.25821772 -0.18937509 -0.12489012 -0.030286334 -0.0646701 -0.15771368
0.03642687 0.09347153 -0.017421868 -0.008736518 0.10024614 0.23733664 0.02072752 -0.0814817
-0.0688644 -0.012501126 -0.11337435 -0.09461639 -0.14756735 -0.10392502 -0.05587773 -0.085522205
-0.11761759 0.0041763647 -0.0015998031 -0.039994903 -0.062261257 0.1607331 0.18774597 0.113491625
-0.0038088518 0.1153593 -0.031844035 0.062248252 -0.04059128 0.06259357 0.08613035 0.026868083
0.036506306 -0.04083615 0.0029039988 0.066237144 -0.039959677 -0.025075827 0.079806864 0.01723277
0.08875414 0.054719266 0.0387425 0.002842894 0.04371414 0.004456695 -0.009668719 0.1157298
0.18075962 0.23369408 0.15870322 0.08785174 0.10920636 0.13641146 0.17678475 0.028172903
0.00421817 -0.028520826 0.04312474 -0.06657838 -0.085113265 -0.087051116 0.014209249 -0.028821208
-0.020780355 0.1174765 -0.09300242 0.019004822 0.0014190945 0.08324664 0.010177054 0.014919699
-0.05206795 0.07598132 -0.04917757 -0.047645837 -0.07269802 -0.124841005 0.010050363 -0.01237659
-0.053994406 0.03153863 0.032345943 -0.046167456 -0.1582954 0.12774758 0.044109352 -0.0024306045
-0.12721089 -0.16308911 0.21262722 0.046896964 -0.049601763 -0.21499138 0.040980045 0.22381221
0.048396617 0.10662544 -0.23376293 0.046054255 0.14135306 -0.064044006 -0.005217229 0.02616609
-0.022295682 0.039917473 0.101972304 0.11772641 -0.14479569 -0.0809297 0.1291645 0.20698138

conv1.bias f4 [6]
00000000: 79f1 8f3d 212c 513d d898 2cbe 3bc9 54bb
00000010: 3cf2 1abe 29bc 323d
0.07028479 0.051067475 -0.1685518 -0.0032468576 -0.15131468 0.043636475

conv2.weight f4 [16, 6, 5, 5]
00000000: 2c4f 8abd 51df 3e3d c0d5 e5bd 73a3 d2bd
00000010: 0ffd 6e3c a3bd ecbc 61de efbc 2c03 a1be
00000020: 579d 0bbe e901 1c3e 871b 843d abcc 5cbe
00000030: 9dc4 82be 55d9 283e 22f3 913e aa59 61bc
00000040: 9e8d 73be ccae 0bbb f444 443e 43ec 103e
00000050: 94e0 bebd 3d09 963d cee1 113e c3cf 493e
00000060: 00d7 873d 2f8f 00bd c811 933d e604 1b3d
00000070: 0c7f ddbc 4ee1 623c 4471 613d 4ccd 073e
00000080: 3cac e03d d5b4 f3ba 6900 a13c 8b35 223e
00000090: 23bd 4e3e a014 2c3d 0378 a3bd 6185 f2bd
000000a0: 33bc 643d 5b71 f23c 7151 403d 4706 9abc
000000b0: 766b 82bd d845 c4bd 9aa8 82bc 746c c9bd
000000c0: dbc3 07be 45fa 93bd 9529 003c 5947 98be
000000d0: 902f 05be 27ae ac3d fe9e 983d 21a0 66be
000000e0: 6bc8 abbe e9e1 923c 7573 233e 2f28 473e
000000f0: 626e 77be abfa 68bd 5526 923d 4103 2d3e
00000100: 9a8c b13d e9f6 f53b d684 c83c f850 b93d
00000110: e931 1d3d 93be b63d 0752 063e 5b04 29bc
00000120: 7520 783d 4ba8 ab3d bcf6 ffbb 7b97 4c3d
00000130: f1c3 49be 1d13 703d 2cb0 b53c ce8a 47be
00000140: f022 0abe f007 b53d f340 4b3e f066 93bc
00000150: 1544 24be e6ca 62bb 5614 723e c161 803d
00000160: 631e 65be 5734 70bd 045c 8f3d 43d1 313e
00000170: 8bb6 86bc a3fb 9bbd d281 4bbd 1389 0e3e
00000180: d5ce b63c 440b 90bd f6af ba3c f0ae 8abd
00000190: 7d48 5a3e d14e c03d a2c4 5fbe 6d6a 3abe
000001a0: d295 073e 55a2 cf3c a83b 59be d1d1 d5be
000001b0: 2270 a5bd d3f8 633e 49ae 8ebd 5a73 abbe
000001c0: f61f 32be 6672 3b3e 57f9 003e f168 17be
000001d0: 9a90 dabd 2055 d03d 8a56 383e 0bc1 af3d
000001e0: 9951 103e 607e 293e 5751 2b3e bded 023e
000001f0: 0811 05bd 7ad5 08be 0c6f b0bc b2d3 4abb
00000200: 668d 543c a3e0 a53d 74af ad3c 7726 953c
00000210: 0b52 8abb dc31 313c dee0 023e 27a2 943d
00000220: 939a 7cbd 4b5a e4ba 9a5e 34bd 7c9e 3a3d
00000230: 9a80 3e3d 3fb3 bfbd b63a 91bd 7877 aabd
00000240: 6fbc 16bd b96c b0bd 83e1 b1bd 7478 06be
00000250: d735 afbd 4104 8dbd 2ed5 0b3d dfb7 9b3d
00000260: 2dfb 373d 8042 033e acaf 153e 41b2 a3bd
00000270: a4d7 1d3d 8825 f93c fbf0 5f3d 4241 3d3e
00000280: 8793 28bd da77 e7bc 3780 a73c 2e61 62bd
00000290: 9da4 fc3b 929c 8e3c 4766 21bd 7384 c8bc
000002a0: 5622 11bd a2b9 eebd 2437 cb3c 4201 0abb
000002b0: 5ea0 0e3b fe2f aebd 3fcc 0ebe 3720 15bc
000002c0: e9d2 4c3d 4ba9 b13d c388 94bc 7c47 5bbd
000002d0: 582b b9bb 2624 4a3d e007 90bd 0e74 80bd
000002e0: 786d be3d 0baf 123e 8a00 67be 2677 24be
000002f0: 4101 303d 2222 943e a0d0 933d 081e 3fbe
00000300: d5e7 f0bd fe8f 883d 90e3 8a3e 816c 423d
00000310: 28cd ec3c 02ca 053e 733b 0a3e e924 3b3e
00000320: 34dc f8bd 62b4 0cbe e811 18be 0ce4 ac3d
00000330: 9d0c dc3d aee1 4fbe 8719 59be 35b5 0dbd
00000340: d04d af3d ca7e e93d 3cae bcbd 0e3c c5bc
00000350: 507e 403c 439a 843d 72a6 34bd b502 f93d
00000360: 1338 8c3d 53d8 9a3d 4032 9a3c cac8 a2bd
00000370: e6bc 0e3e e3ed 3c3e a5c4 963d 6411 033e
00000380: 4efa d53c f5f5 05be 7d19 5cbe 151a 38be
00000390: 6c64 653d aa5f 3f3e fab4 2cbe ee4a 67be
000003a0: 4a2c 76bc 811d 903d 2d05 c4bd d438 27be
000003b0: 0436 25be 2248 d0bd 773c 92bd 5f3b 28bd
000003c0: c38e 933c e1d8 cdbc f239 0dbe 81b1 283c
000003d0: 658a 973e bf3e a13d f8ff b23d 6cf6 d13d
000003e0: f8c7 e03e 1775 3a3e 284a 07bd 6309 debd
000003f0: 1b7c 0d3d d449 4f3d 1b48 b13e 2e06 c4bd
-0.06753382 0.04659969 -0.1122241 -0.10285082 0.014586701 -0.02889902 -0.029280843 -0.31447732
-0.13634239 0.15235104 0.06450563 -0.2156245 -0.2554063 0.16489156 0.28505808 -0.013754288
-0.23784491 -0.0021313904 0.19166929 0.14152627 -0.09320179 0.07325981 0.14246294 0.19708161
0.06632805 -0.03138655 0.07181126 0.03784647 -0.02703812 0.013847662 0.05503966 0.13261908
0.10970351 -0.0018593321 0.019653516 0.15840738 0.20189337 0.042011857 -0.07981875 -0.11841846
0.055843543 0.029595068 0.04695267 -0.018801821 -0.06368153 -0.09583634 -0.015949536 -0.09835139
-0.13258307 -0.072254695 0.007822414 -0.29741934 -0.13006425 0.084316544 0.074522 -0.22522022
-0.33551344 0.017929988 0.15962012 0.19448923 -0.24163201 -0.05687968 0.071362175 0.16895773
0.08669396 0.0075062406 0.024477404 0.09048647 0.038377676 0.08923068 0.13117228 -0.01031598
0.06057783 0.08381709 -0.0078113955 0.04994915 -0.19703652 0.058611978 0.022178732 -0.19486544
-0.1348989 0.088394046 0.19848995 -0.01799342 -0.16041596 -0.00346058 0.2364057 0.06268645
-0.22374873 -0.058643665 0.069999725 0.17364983 -0.016444465 -0.07616355 -0.049684353 0.13919477
0.022315422 -0.07033399 0.022788983 -0.06771648 0.21316715 0.09390033 -0.21852353 -0.1820466
0.13240746 0.02534596 -0.21214163 -0.4176164 -0.08078028 0.22262888 -0.06966836 -0.33486444
-0.17395005 0.18305358 0.12595116 -0.14786126 -0.10672112 0.10172486 0.18001762 0.08581742
0.14093627 0.16552114 0.16730247 0.12786002 -0.032486945 -0.13362685 -0.021537326 -0.0030948934
0.012973165 0.08099487 0.021201827 0.018206818 -0.004221206 0.01081511 0.12781093 0.072574906
-0.06167085 -0.0017421929 -0.04403553 0.0455613 0.046509363 -0.0936036 -0.07091276 -0.08323568
-0.036800798 -0.08614487 -0.08685591 -0.13131887 -0.08555191 -0.06885577 0.03413885 0.0760343
0.044917274 0.12818336 0.14617795 -0.079929836 0.03853573 0.030413404 0.054673176 0.18481925
-0.041156318 -0.028255392 0.02044688 -0.05526846 0.007710053 0.017408643 -0.03940418 -0.02447722
-0.035433136 -0.116565004 0.024806567 -0.0021057879 0.0021763067 -0.085052475 -0.13945101 -0.009101919
0.050005827 0.08674868 -0.01813162 -0.05353497 -0.005650919 0.04935088 -0.07032752 -0.06272136
0.09298223 0.14324586 -0.225588 -0.16061077 0.042969946 0.2893229 0.072175264 -0.186638
-0.117629685 0.06668089 0.2712674 0.04746676 0.02890642 0.13065341 0.1349924 0.18275799
-0.121513754 -0.13740686 -0.1485058 0.08441934 0.10744593 -0.20300934 -0.21201144 -0.03459664
0.085597634 0.11401136 -0.0921292 -0.024076488 0.011748865 0.064747356 -0.044104047 0.121587195
0.06846633 0.07560792 0.01882279 -0.07948454 0.13939247 0.18450122 0.07361726 0.12799603
0.026120331 -0.13082106 -0.21494098 -0.179787 0.056003973 0.18688837 -0.16865912 -0.22587177
-0.015025208 0.070368774 -0.095713 -0.16330272 -0.16133887 -0.10170008 -0.07140439 -0.041072246
0.01801241 -0.02512783 -0.13791636 0.0102962265 0.29597774 0.07873296 0.087402284 0.10252079
0.43902564 0.18208729 -0.033029705 -0.10841634 0.034542184 0.050607517 0.34625325 -0.09571491

conv2.bias f4 [16]
00000000: 57a9 0abe 2442 22bd 77ef d03c ad62 f0bd
00000010: b223 81be d351 babe 4e90 64bd edef 0c3e
00000020: e03d 5d3e 0fe1 1e3e 187b 993c 55eb 733e
00000030: 31b9 b03e 04a3 1a3e d1b2 aabc 0d34 3f3e
-0.1354116 -0.039613858 0.02550481 -0.11737571 -0.25222546 -0.36390552 -0.055801682 0.137634
0.21605635 0.1551554 0.018735453 0.23820241 0.3451629 0.15101248 -0.02083722 0.186722

fc1.weight f4 [256, 400]
00000000: 2f7a 1eba d260 cabd a983 593c dc88 1dbe
00000010: 4729 eabd 2305 433d 3251 313d d176 41bd
00000020: 0328 55be 571a 1dbe f772 cabd f816 e73b
00000030: c2e8 62be bb41 12be 0d25 debc 0cc5 78bd
00000040: 803d 86bd 1c5f 5ebe 87e3 e9bc ff8e 3ebd
00000050: 8e82 23be 8e39 7cbe 2898 89be 9527 60be
00000060: ad36 78bd ef7b dd3d 9ce4 27bd d0db b2bd
00000070: c51a 953c 7c04 1b3e b4cf 84bd f431 29be
00000080: 82ce a7bd f35d 4dbd a310 6cbd 3cdc a3bd
00000090: 90f0 90bd 161a 30bd 7244 803c c893 32bd
000000a0: d656 4ebe 6e30 263d 30d6 e8bc 4edf 773d
000000b0: 2a60 29be b418 b1be 453c 69be e561 0d3c
000000c0: d107 42bd 9c36 a6be 438a a0bc 548d 823c
000000d0: 79f7 f4bd 48fd 84bd 5052 27be 563b 38bd
000000e0: 0a48 90bd dd9e 0bbe 2cdd 3bbd cd3f 35be
000000f0: 2304 9e3c 9525 45be 1f18 4abe 6664 29be
00000100: 0d84 15bc 56ba e63d f116 81bd 5fe4 95bd
00000110: 1f65 10bd 7d70 fa3d 31a7 aabd 7b7e 003e
00000120: 531d 813e b8cb a93e a77a a83e 720b b9bc
00000130: 4aaa ce3d b95d f33d e6d9 0b3e fae6 273c
00000140: 6373 1dbe d44f edbd 65f9 e0bb 7e75 a33c
00000150: e59c 14bd 1d17 82bd 377b c6bd 2792 2abd
00000160: 1618 0abe c9f3 c8bd 3b39 bebd e527 bdbd
00000170: c5f2 28be e5ee 42bd 1b6f 59bd c9b1 09be
00000180: b1ef 19be 7ffb c2bd 003e 5dbd 111d 623d
00000190: 8e34 32bc 1ff2 df3d c9de 313e 9207 183e
000001a0: f9f9 d53d 5a37 8bbd 810b 1bbd 3b91 a63d
000001b0: 4b70 4f3c ff12 88bd 7338 8cbd 3c3e ee3c
000001c0: adb5 0b3e f141 013e 14b8 e43b 4cec 053d
000001d0: dced a63d 019b 193e de00 ea3d 8651 4d3d
000001e0: 2d28 c73d 296e 5d3d a335 063e 71f5 223e
000001f0: 764a b1bd 849c 38bc 8f99 5f3d 4dcf be3d
00000200: 78e8 0e3e 2028 6abd 22ea a03c e118 dabc
00000210: 8e62 b33d ff3e 18bc c8ce 38be b3f1 0dbd
00000220: f097 a23d 559d cf3d ecf6 abbd 6992 613b
00000230: e7f1 0d3e fe47 69bd ac99 1f3c 9ea3 f2bb
00000240: eabc d03d fce5 923e f560 2f3e ead2 ee3d
00000250: afe1 1c3e ae01 6e3e 27b9 e4bc 4c6f 10bd
00000260: 6117 65bb 3066 92bc 2076 cf3d 5cb3 e33d
00000270: d6da d33c fb7c bc3c ac58 07bc 4b1a d73c
00000280: 7a4e cf3d f61b 0e3e 8919 213e 0eb3 0f3d
00000290: 5099 1ebd 1261 583d e4fe 873d dadf 673d
000002a0: b3b4 063d 33f0 9d3d ea47 32bc 4c61 1b3e
000002b0: 3698 c23d 641a a83d dd95 073d 4f85 1abc
000002c0: 8758 c0bd 61fc b3bd 2f74 32bd f17b 0e3c
000002d0: 9b2b 753d 8561 8e3c e2aa 1f3d e8da 2f3d
000002e0: bdcd 453d 2742 083b 380d 253e 041b 623e
000002f0: 0d4f 403e bc5f d23d 7012 53be ddb1 a93c
00000300: e738 023d 0640 713c b30d 0abd c983 cabe
00000310: f2ff 94be ea7f 88be 4aed 4cbe c740 4dbe
00000320: 2006 06bd 7ff5 9ebd d9e3 8cbd aea0 fdbd
00000330: 84ef 5dbd cea9 ba3a 2316 0b3d d617 503d
00000340: edd0 953d 596b a13b 26ff 2fbb 0686 b03d
00000350: 8cb4 573d 6bf1 9d3c 6e76 61bb 2d47 c03d
00000360: 68ab a83d 95a5 993d d7e2 e83d 1296 dabc
00000370: 8a46 273d 9641 413d 21db 153e 3c2c 253e
00000380: 47ed ab3c 64bd 6dbe 3eba 9fbe f285 3bbe
00000390: 9a47 15be 0585 84be 7ff0 1dbe 8142 5dbe
000003a0: 7399 36be 8249 01be c2ac 87be de5e 9abd
000003b0: 95ed 59be 2017 ccbd 5a88 39be 8fd7 3cbe
000003c0: 0a99 59bc 194a 6c3d 0cd6 003d 6179 9d3d
000003d0: 3201 1fbd 960b 1cbd ddae ae3d 1a81 a73d
000003e0: deef 223a c057 cabd 3065 983d 103a 453e
000003f0: b4f8 3e3e 1a01 763d 47a8 9f3d 35da a9bc
-0.00060454285 -0.09881748 0.013276019 -0.15384239 -0.11433654 0.04761232 0.043290325 -0.047232453
-0.20816045 -0.15342079 -0.09885209 0.0070522986 -0.22159103 -0.14282887 -0.027117277 -0.060734794
-0.06554699 -0.21715969 -0.028550876 -0.04652309 -0.15967771 -0.2463133 -0.26873899 -0.218901
-0.060599018 0.10814654 -0.040989503 -0.08733332 0.018201241 0.1513843 -0.06484929 -0.16522962
-0.08193685 -0.050138425 -0.057633054 -0.08000991 -0.07077134 -0.042993627 0.015657637 -0.043597966
-0.20150313 0.04057353 -0.028422445 0.060515694 -0.1654059 -0.3458916 -0.22776897 0.008629297
-0.047370736 -0.3246354 -0.019597178 0.015936531 -0.11961264 -0.06493622 -0.16339993 -0.044978462
-0.0704499 -0.1363482 -0.045865223 -0.1770012 0.019289082 -0.19252618 -0.19735764 -0.16542205
-0.009125722 0.112660095 -0.06303204 -0.07318949 -0.035252687 0.12228487 -0.083326705 0.12548248
0.25217685 0.33163238 0.32906076 -0.022588465 0.10091074 0.118831106 0.1365734 0.01024794
-0.15376048 -0.11587492 -0.0068656676 0.019953486 -0.03628244 -0.06352065 -0.0969147 -0.041643288
-0.1348575 -0.09812123 -0.092882596 -0.09236125 -0.16498859 -0.04759111 -0.053084474 -0.13446726
-0.15032841 -0.09520625 -0.054014206 0.0552035 -0.010876788 0.10934853 0.17370142 0.14846638
0.10448069 -0.06797667 -0.037852768 0.08133169 0.01266105 -0.06644248 -0.06846704 0.02908241
0.13643523 0.12622811 0.0069799516 0.032696053 0.08150837 0.15000536 0.11425947 0.050126575
0.0972446 0.054060135 0.13106398 0.15913941 -0.086567804 -0.011267785 0.054589804 0.09316883
0.13955867 -0.057167172 0.019642893 -0.026623191 0.08759032 -0.009292363 -0.18047631 -0.03465433
0.07939136 0.101374306 -0.08396706 0.0034419543 0.1386181 -0.056953423 0.009741228 -0.0074047586
0.101922825 0.2869109 0.1712683 0.116613224 0.15320466 0.23242828 -0.027920319 -0.03526239
-0.0034956562 -0.017870992 0.101299524 0.111181945 0.025861185 0.023008814 -0.008260887 0.026257655
0.1012239 0.13877854 0.15732397 0.03508287 -0.03872043 0.05282695 0.066404134 0.056609966
0.032887172 0.0771183 -0.010881403 0.15173835 0.09501688 0.082081586 0.033101905 -0.009431197
-0.09391885 -0.08788372 -0.043567833 0.008696542 0.05985604 0.017380485 0.038981326 0.042933375
0.04829191 0.0020791383 0.16118324 0.22080618 0.18780155 0.10272166 -0.20612502 0.020714695
0.031792548 0.014724737 -0.03370447 -0.3955367 -0.2910152 -0.2666009 -0.20012394 -0.20044242
-0.032720685 -0.077616684 -0.06879396 -0.12384163 -0.054183498 0.001424128 0.033956658 0.05080398
0.0731524 0.004926127 -0.0026854961 0.08619313 0.052662417 0.019280156 -0.0034402865 0.09388576
0.08235818 0.075022854 0.11371391 -0.026682887 0.040838756 0.04718169 0.14634372 0.16130155
0.020987166 -0.23216778 -0.3119678 -0.18312815 -0.14578095 -0.25882736 -0.15423773 -0.216074
-0.17831974 -0.12625697 -0.2649899 -0.07537626 -0.21282037 -0.09965348 -0.1811842 -0.18441604
-0.013281116 0.057687853 0.03145413 0.07689167 -0.0388195 -0.038096987 0.08529446 0.08178921
0.00062155526 -0.09880018 0.07441175 0.1926043 0.1864956 0.060059644 0.07795768 -0.020733932

fc1.bias f4 [256]
00000000: 9cba 38bd 37c7 4abe 13b5 aebe 0be8 84bd
00000010: dc8e 90bd 9ab3 17bd 3c86 c13e 6e4d f0bc
00000020: e5d6 05bd 49b0 42bc 93af b93e f63c a53e
00000030: c65e 92bc 05b0 6fbd 5448 003e ef00 d53e
00000040: 85eb 5e3d f3e1 073e eeeb ec3e 5517 3d3f
00000050: 4738 72bd d898 abbd f713 1a3f 2267 6ebe
00000060: 2703 69be 6706 a23e 3cef 1b3f 0f6c 393c
00000070: 504c 38bd f999 29bd ca85 153f cd81 56bd
00000080: e895 2c3e ccad 3fbd 46bf 4dbd 6aff 18bd
00000090: 7138 883e 7985 07be f4e9 a8bd e50b d9bd
000000a0: 7cd3 8ebd 8d9e e63c db1f 1b3d 4875 063f
000000b0: 7e0d c93e e4ef f6bd 41d7 2ebd 96b4 0c3e
000000c0: 7aec 033d f080 52bd 9db7 003f 6aa6 0a3f
000000d0: 2b47 88bd eaa7 84bd 5987 f43c e7c2 70bd
000000e0: d2d5 c1bd f1ea 41bd 95c4 3a3c a1ce 74bd
000000f0: 705f 853e 71f7 4abd 4bbc 6dbd 06d0 0b3e
00000100: 8a10 89bb 8319 623c cdc9 a13e 44a5 aa3e
00000110: 67e6 ae3e 99bf 813e 6501 993e ccb0 88bd
00000120: 8df0 a3bd 905e 48bd e0bf 0a3e 4020 8bbd
00000130: d5ce 87bc 737c c3bc 65fc c53b a6d5 be3e
00000140: 31e7 033f 471c a5bc 743f 8abe 045a 82bb
00000150: 50f1 093e 6174 85bd 2f3b 353f 1ed0 ae3c
00000160: fb2f 743d 4596 25be 8053 0e3f 5faf 473e
00000170: a1dc 4e3e fe45 253e 171b 3bbc 0763 603d
00000180: 3d0e 003f 0926 a63e 74e2 9cbd 9603 85bc
00000190: a905 8f3e 5f0e a33d b885 bdbd 8191 03bc
000001a0: 19ca 5bbd b21b 21bd 0895 753b 6b28 083e
000001b0: d75c e83e 0c71 c7be 11f3 9e3e a867 383f
000001c0: 18c3 90bd e6c3 573e db6b fcbc e971 2c3e
000001d0: 726b 77bd 3bcf cf3d 5e6e 0f3c a53b 35bd
000001e0: ab96 efbc 87b6 1ebd 8bf8 91bd ef16 adbc
000001f0: d392 8c3c d436 63be f48e 303c ff52 143e
00000200: 0c94 84bd 04a5 d33c 4b2b 8639 c756 e13d
00000210: 5b88 c13d e30e 6abc 3177 9a3d 25bc 333f
00000220: 8dea df3d c926 173f f6a1 49be 9e84 bdbd
00000230: 50c2 be3d d2ef 1abd c203 ce3e fb79 7fbd
00000240: 9318 a8bd b29b ae3e 328c ec3e edf8 d5bd
00000250: f928 d8bc 6c7f b83c af8d 9d3e 85a0 ab3e
00000260: 4ae3 f83d 3a2d 213d 4f96 ce3e d068 493e
00000270: 4a19 a03a 39e8 23be ce36 813e ab35 87bd
00000280: c6a9 37be 29db 7d3e e515 953e 902a 633d
00000290: b16d 9fbd 7fd7 58bd 08b5 dd3c 0fd7 fc3d
000002a0: c334 d53e 88e6 5fbe 4497 1a3d 29c3 8b3e
000002b0: fd1d f6b7 6751 31bd a74d 05bd 9840 33bd
000002c0: 9eeb 9cbe cf04 4a3a fdb3 9ebe 7905 4c3e
000002d0: b0cf 1b3f bcc2 34bc 9728 193e f4ac 083d
000002e0: 9436 183d cf97 543e baf1 c03e bf8d 38bd
000002f0: 1f5d cb3b 17bd 8abd 31ef 38be b9d7 c93e
00000300: 2edd 98bd ae07 ef3e 3330 09bd 3941 133f
00000310: ce44 283e c767 c43e 2ee0 3d3e 3019 0a3e
00000320: 725c c73e ff58 74bb aa9f 4a3d 194e a2bd
00000330: cb9f e33e b44d 2abc 316d cb3d 5b73 683e
00000340: fc9b 71bd 088f 5c3e f35e 133e c6af e8bd
00000350: 61a4 25bc 4e66 aebd 66b7 f13e eadd 3cbd
00000360: 64fe 3d3e a48a 5ebd 0f44 1a3e f20c 463e
00000370: 188d 9c3d 8af6 f33d 1d68 413e 8744 83be
00000380: d48d e8ba 02d0 b2bd b330 2dbd fae1 19bd
00000390: 5b37 40bd a104 7dbd 5e94 7bbe 0146 443e
000003a0: 4ff4 073d 19a7 e03b e96e dbbd c181 963c
000003b0: 07c9 20be b241 0fbd a7a4 e13c b3ae 673d
000003c0: 7baa cbbd c83c 72bc 3de4 09bd 166e 06bd
000003d0: 0e87 f43e 39a1 5cbe 476a ca3e 135b 2bbd
000003e0: 1357 12bd bbba 01bd 17b7 3bbd 3eec 59bd
000003f0: 4ed4 ceba 026f ed3e 3485 0a3d b767 0d3e
-0.04509984 -0.19802557 -0.34122524 -0.06489571 -0.07058498 -0.037036516 0.37797725 -0.029333796
-0.032675643 -0.01188285 0.36266765 0.32273072 -0.017867457 -0.058517475 0.12527591 0.41602275
0.054423828 0.13269787 0.4627375 0.73863727 -0.0591357 -0.08378762 0.60186714 -0.2328153
-0.22755109 0.3164551 0.6091192 0.011317267 -0.044994652 -0.041406605 0.5840727 -0.05236988
0.1685406 -0.046796605 -0.05023124 -0.037352957 0.2660556 -0.1323451 -0.08247748 -0.10597972
-0.06973931 0.028151775 0.037872177 0.52522707 0.39268106 -0.12057474 -0.04268575 0.13740763
0.032207943 -0.051392496 0.5028017 0.5416018 -0.06654199 -0.064773396 0.029849695 -0.058779623
-0.09464611 -0.0473432 0.011399408 -0.05976737 0.26049376 -0.049552385 -0.0580409 0.13653573
-0.00418288 0.013800028 0.31599274 0.33329213 0.34160158 0.2534149 0.29883876 -0.06674346
-0.08004866 -0.048918307 0.13549757 -0.067932606 -0.016578117 -0.023863053 0.0060420507 0.37272376
0.51524645 -0.020155085 -0.27001536 -0.003978016 0.1347096 -0.06516338 0.7079343 0.021339472
0.05961607 -0.16170605 0.5559616 0.19500493 0.20201351 0.16139981 -0.011420033 0.05478194
0.50021726 0.32450894 -0.0766038 -0.016237061 0.27934006 0.079617254 -0.092540205 -0.008030296
-0.053659532 -0.039333053 0.0037472863 0.13296668 0.4538333 -0.38953435 0.3104482 0.72033167
-0.07068461 0.21070823 -0.030813148 0.16840328 -0.060405202 0.10146948 0.008754341 -0.044246335
-0.029246649 -0.03874829 -0.07127484 -0.0211291 0.017159855 -0.22188884 0.01077627 0.14484785
-0.0647355 0.025835522 0.00025590727 0.110028796 0.09449836 -0.014285776 0.07542265 0.7020896
0.10933409 0.59043556 -0.1969069 -0.0925381 0.09314406 -0.037826367 0.40237242 -0.06237219
-0.08207812 0.3410316 0.4620071 -0.104478694 -0.026386725 0.022521697 0.30772159 0.33520904
0.12152727 0.039349772 0.4034905 0.19668889 0.0012214568 -0.16006555 0.25237125 -0.06602033
-0.17935857 0.24790634 0.29118267 0.055460513 -0.07784594 -0.052939888 0.027063861 0.12345707
0.41641816 -0.21865284 0.037741914 0.27297333 -2.933945e-05 -0.043290522 -0.03254476 -0.043762773
-0.30648512 0.0007706405 -0.30996695 0.19923963 0.6086378 -0.011032756 0.1495689 0.033368066
0.037161425 0.20761035 0.37684423 -0.045057055 0.0062061693 -0.06774347 -0.18059994 0.39422396
-0.07464062 0.46685547 -0.033493232 0.57521397 0.16432497 0.38360426 0.18542549 0.13486171
0.38937718 -0.003728449 0.049468674 -0.07925052 0.4445785 -0.010394502 0.09932936 0.22700255
-0.05898665 0.21538937 0.14391689 -0.11361651 -0.010109992 -0.08515607 0.47210234 -0.04611007
0.18554074 -0.054331437 0.15065025 0.19340876 0.07644099 0.11912258 0.18887372 -0.2563822
-0.0017742463 -0.087310806 -0.04228277 -0.037569024 -0.04692779 -0.061771993 -0.24568316 0.1916733
0.033191975 0.006855857 -0.10714514 0.018372418 -0.15701686 -0.03497476 0.027544333 0.05656309
-0.09944626 -0.014784999 -0.03366493 -0.03281983 0.4775929 -0.21545877 0.39534208 -0.041834902
-0.03572757 -0.03167222 -0.045828905 -0.053203814 -0.0015779824 0.46373755 0.03381844 0.13809095

fc2.weight f4 [10, 256]
00000000: bbe2 ce3c 8eb3 3abe 51e9 4dbb 7fd6 8a3d
00000010: 5eb1 13bb 7693 083d c2a2 96be f566 3fbe
00000020: 2ed3 5c3c ce89 abbd 36d8 4dbe 8a82 b3bd
00000030: a525 703d 7194 67bd d295 113d 37e4 7fbd
00000040: 5453 f0bd e0c8 953d 3d7b bcbd e105 93be
00000050: fa3d 8b3d f38a 5abd 37be 59be cfe7 c0bd
00000060: ef1f 9fbd 062d 8cbe 54bc c73d 861b dcbd
00000070: eb62 a63d 9059 debc 22a3 a63d ed26 64bd
00000080: 51e0 ef3d f687 ae3d fde1 67bd f37a e7bc
00000090: 72f6 c9bd 0b47 28bd 14b8 d3bd edf4 1a3e
000000a0: d7d5 8bbb bdd3 263d 3eeb cd3d f9ca cdbd
000000b0: 068e 77be 3123 4c3d 53f7 423d 95a7 343d
000000c0: e82c bc3d 5eb2 f23c 5a1c 013c c685 89be
000000d0: 5dce a1bd 0a4f efbc 3b74 a5bc e4b3 883c
000000e0: 6004 c23d c862 8c3d 7a09 84bd a2ea 8dbc
000000f0: 2687 98be 2f16 44be 290b a53c f0d9 ccbd
00000100: e50b 14be 8827 a13d 4bdf 46be 1e77 1bbd
00000110: c0b7 e2bd 2fc9 d73d c461 aa3d cc9e 8bbd
00000120: fa81 c0bc 3ca8 173d 175b 3cbd 5e96 25bd
00000130: f1ae a4ba 12df 493d 3bb7 ecba 74f5 d4be
00000140: 8f73 89be e10e aabc 9db3 513d ea55 8c3c
00000150: 8e83 30be a799 633c f9da 83be b389 e4bc
00000160: 16a6 173e 219f 433a 1144 86bd 5b0e 05be
00000170: bd9d 4abe 43b5 a3bd 3764 c93c d6d6 9bbd
00000180: 9bcc 43be 7b71 b73b 48af ba3d 8c9c a6bd
00000190: 7bdc 8e3c b2ba dfbe 3501 abbd 109c b1bc
000001a0: 22c2 98bc 2508 533d 815c 9cbb 586b b9bc
000001b0: 514c 8fbe b695 183c 7bfc e53d f939 19be
000001c0: ea91 afbc c211 b43d 4e03 85bc 5b5d c3be
000001d0: bdf1 503b 5879 fb3c 25ce 623c f67d e13d
000001e0: 4e6a 253c 70a4 d0bc c298 40bd 8060 3c3d
000001f0: 489f 71bc e0ff 943d ad3b 1dbc 957f 493d
00000200: 05c0 7fbd 8ba2 0ebb 791c ffbd d00e e9bd
00000210: a922 913d c961 04bd ae02 cebc 3819 e73d
00000220: 6db2 4a3d fb49 933d 4dfd 2f3e 94bc a8bd
00000230: cac7 d73d 04bc 653c 4762 e83d 1252 07bb
00000240: 7ba1 17bd 7b53 023e aee6 5bbd 1244 0fbe
00000250: 88d2 95bc ce43 9ebc e61f 593d cf32 593d
00000260: 196c b03d 5d88 543c 1174 a23d 6a0e 403e
00000270: 5330 bbbb 4068 02be 9743 8bbe 7246 713d
00000280: 2305 acbd b4da b93d 6c9a ca3d d062 e13d
00000290: 0114 42bc b591 9d3c ee19 5e3b 5e13 73be
000002a0: 9601 703e 413f 34bd d470 63bd 043a 41be
000002b0: c191 913d fb48 b9bd cd95 b8bc 08c8 a0bd
000002c0: 3470 0c3d 4bdc a63c c834 5f3d 9ab4 61be
000002d0: d0c0 85be 2f17 bd3d b51c 20bd c24c e9ba
000002e0: becc 66bd b504 e03d 4354 78be 6f2f 57bb
000002f0: d446 f33b 3bb3 c23b a87b e63d 7ff9 cf3d
00000300: ae16 b8bc 5fb1 11be 83f3 63be 5a5d 82bd
00000310: 1e9e 913c 97d4 a0bc 36e8 15be ed16 453d
00000320: 7e82 f13d f010 133e 98eb 413d 0c0b 30bd
00000330: 1d92 34be 76ef a23c 19df c93d 1cac 653e
00000340: 0123 263d c584 cb3c c9d6 4cbe 2c1f febd
00000350: 5e47 143e 0a6b 10be 70be 0fbe b291 05be
00000360: 4ad8 b73d 1173 85bd 8cd3 023e 7b01 bfbe
00000370: adb9 913d bba6 d73d 39dd 483e a402 3d3c
00000380: 2edd 523c aed1 41bd 8e60 2e3d 0698 89bc
00000390: 4f11 62bc e7b5 ae3d 8338 bb3c 970f 98bd
000003a0: 57a1 f23d 17b3 963c ba00 cabd 975d 853c
000003b0: e7ba e9bd ff27 fa3c 3114 aabc 4be9 103e
000003c0: 970d 41be 64c1 e13c ec6a bebb d9c7 083d
000003d0: 7137 3a3e d4eb 083c 8a2b 4fbe 4645 c03c
000003e0: 6308 5c3d 1dd8 b53d 2a88 a23d 314e 0ebd
000003f0: 5dfb 93bd 61cb fdbc 098a 183e 151b 3bbe
0.025254598 -0.18232557 -0.0031419585 0.06779193 -0.002253614 0.033343755 -0.2942105 -0.18691619
0.013478084 -0.083758935 -0.20102009 -0.08765133 0.05862965 -0.05653805 0.03554327 -0.062473502
-0.117346436 0.073137045 -0.09203193 -0.28715423 0.067989305 -0.05335517 -0.21263967 -0.09419214
-0.07769763 -0.273781 0.097527176 -0.10747437 0.08124336 -0.027142316 0.08136584 -0.055701185
0.11712707 0.08522026 -0.056612004 -0.028256869 -0.09861459 -0.041083377 -0.103378445 0.15132494
-0.004267435 0.040729273 0.100546345 -0.100484796 -0.24175271 0.04983825 0.047599148 0.04410513
0.09188253 0.029626068 0.007880295 -0.26859874 -0.07900689 -0.029212493 -0.020197025 0.016687341
0.09473491 0.068547785 -0.0644712 -0.017323796 -0.2979061 -0.19149087 0.020146923 -0.10002506
-0.14457662 0.07868868 -0.19421117 -0.037955396 -0.11070204 0.105364196 0.083194286 -0.068173975
-0.023499478 0.037025675 -0.045985308 -0.040426604 -0.0012564344 0.049285002 -0.0018059978 -0.41593516
-0.26845977 -0.020759048 0.051196683 0.01713081 -0.17237684 0.013891614 -0.25753 -0.027897691
0.1480945 0.0007462372 -0.065559514 -0.12993757 -0.19786735 -0.07993557 0.024583919 -0.07609336
-0.1912102 0.0055982447 0.091154635 -0.08135328 0.017439118 -0.43697125 -0.083498396 -0.021680862
-0.018647257 0.05152144 -0.0047717695 -0.022634193 -0.27987912 0.009313038 0.112297975 -0.14963521
-0.021431882 0.087924495 -0.016236927 -0.38157162 0.0031882368 0.03069751 0.013843094 0.11010353
0.010096146 -0.025469035 -0.04702068 0.045990467 -0.014747448 0.07275367 -0.009596747 0.049193937
-0.062438983 -0.0021764364 -0.124566026 -0.113797784 0.07086689 -0.032319818 -0.025147762 0.11284107
0.049486566 0.07191845 0.1718647 -0.082390934 0.105361536 0.014021877 0.1134687 -0.0020648283
-0.037019234 0.12727158 -0.05368679 -0.1399081 -0.018288866 -0.019319441 0.053008936 0.05302697
0.08614368 0.012971965 0.07932294 0.18755499 -0.005712548 -0.1273508 -0.27200004 0.058905073
-0.08399417 0.090749174 0.09892735 0.11005175 -0.01184559 0.019234518 0.0033889967 -0.23737857
0.23438105 -0.044005636 -0.055527523 -0.18869787 0.071078785 -0.09047123 -0.022532368 -0.07850653
0.034286693 0.020368716 0.054493695 -0.2204155 -0.26123667 0.092329375 -0.039089877 -0.0017799365
-0.0563476 0.10938398 -0.24250893 -0.003283467 0.007424215 0.005941776 0.11254054 0.101550095
-0.022471752 -0.14227818 -0.22260861 -0.06365462 0.017775591 -0.01963262 -0.14639363 0.048117567
0.117924675 0.1436193 0.04734382 -0.042979285 -0.17633863 0.019889574 0.098570056 0.22428936
0.040560726 0.024843583 -0.20003809 -0.12408289 0.1448035 -0.14103332 -0.1403749 -0.1304386
0.08976801 -0.06516088 0.12776011 -0.37305817 0.07115493 0.10529848 0.1961564 0.011536274
0.012870116 -0.047319107 0.04257255 -0.016796123 -0.013798072 0.08530789 0.022854095 -0.074248485
0.118471794 0.018395944 -0.0986342 0.016279979 -0.11412602 0.03053665 -0.020761581 0.14151494
-0.1885284 0.027558036 -0.005811086 0.033393715 0.18185212 0.008357007 -0.20231453 0.023470532
0.053718936 0.08879111 0.079361275 -0.034742538 -0.07225678 -0.030980768 0.14896406 -0.1827205

fc2.bias f4 [10]
00000000: e8f5 5dbe e6dc a4be a2bd e2bd d78a 583e
00000010: b391 ae3e fcdb f2bc 247a 023e 0e4f 15be
00000020: 8082 fe3d 9c45 cd3d
-0.21675837 -0.32199782 -0.11071326 0.21146713 0.34095535 -0.029645912 0.12741905 -0.14580938
0.12427235 0.100230426
